xai/check_environment/autoencoder.pth (torch, 884149 bytes, 16 tensors)

encoder.0.weight f4 [128, 784]
0.0078028194 0.01946643 0.012547319 0.004684329 -0.0027870594 -0.00446816 0.01855965 -0.0044066813
-0.009068819 0.011248469 0.0018742128 0.0122650135 0.016477618 -0.0005305904 0.0162271 0.012223035
0.0073727597 0.01083648 -0.0011502637 -0.009153694 0.018208027 0.003321685 0.006976015 0.0032328493
0.0026599413 0.006481042 -0.003491505 0.014160721 -0.004332021 0.009155117 0.0075087594 -0.0063964715
0.008270116 0.011570217 0.011301511 -0.00942895 0.012664955 0.0030881518 -0.00651023 0.01184234
0.011512657 0.014551099 0.009160258 -0.005878026 -0.00736718 0.0133050755 -0.0070850905 0.009983128
0.00018574767 0.009761064 -0.008496281 0.018655047 0.0012447891 0.005927704 -0.002834787 -0.006243759
0.015714735 -0.008127235 0.0033139826 0.0064363447 0.0028853088 0.01622626 -0.010399895 -0.016130468
0.003558585 0.0034544352 0.00038498547 -0.022077251 -0.015407667 -0.015166132 -0.032958463 -0.024039272
-0.009227256 -0.015058268 -5.7411555e-05 -0.008978495 -0.010663949 -0.0018238534 0.0040469673 0.0074846963
-0.0009719338 0.0075081633 -0.0056371815 0.013097796 0.0042654085 0.0066979313 0.011577749 -0.0051972126
0.01876602 0.015776152 -0.0004315735 -0.017099818 -0.034151845 -0.03203565 -0.050477907 -0.0721764
-0.06970755 -0.038281932 -0.072859004 -0.08303594 -0.08347643 -0.041607916 -0.030960422 -0.0555479
-0.022644533 -0.010001111 -0.008200259 -0.0021872881 -0.0029286335 0.00011665371 0.0038047223 0.011765498
0.019684965 0.017305346 0.016080458 0.011768583 0.006310084 0.021246126 -0.0026577788 -0.018048814
0.0022786895 -0.022715075 -0.079150185 -0.06831515 -0.043400038 -0.082841 -0.073629685 -0.054738164
-0.040774956 -0.00041491902 0.009700631 0.012836336 0.02402134 0.007436794 0.010204496 0.000515628
-0.009537281 0.012018692 -0.005815322 -0.001910764 0.0029497626 0.0021934574 0.018697457 0.0010731865
0.0093633775 0.032523688 0.006412891 0.0182856 -0.0032798802 -0.031657025 -0.055552248 -0.026602533
0.0096395835 -0.016753795 -0.03227931 -0.011299062 -0.008657477 -0.0009040604 0.03575667 0.022254465
0.0061183474 0.0132438475 -0.0072609517 0.0034166623 -0.016722845 -0.010490882 0.00018763202 0.015222152
6.16734e-05 0.0015656606 -0.010476487 0.019970734 0.03462092 0.01671279 0.019930255 0.03827593
0.012776337 -0.037941724 -0.049164716 -0.0327924 -0.031371865 -0.060293134 -0.090803206 -0.041500926
-0.007518121 0.01420715 0.006458538 -0.011471047 -0.01870304 0.017289776 0.020920819 0.001801568
-0.02446665 -0.012460814 -0.012884131 0.00059387134 0.010398288 0.018496327 0.0029951415 0.007954087
0.03587399 0.03950576 0.04317211 0.052707806 -0.0014609655 -0.021073237 -0.03276039 -0.051445667
-0.07083959 -0.055855982 -0.029874101 0.03737053 0.019783432 0.03459629 -0.034495536 -0.036732834
-0.021633588 -0.0027154738 0.014383547 -0.021719376 -0.006646771 -0.018513575 -0.0022917674 0.0062938696
0.009333065 -0.0037821708 0.019916387 0.032324944 0.0731758 0.08460582 0.09320097 0.057793316
0.009038445 -0.018985108 -0.008604638 -0.055476356 -0.044100415 -0.03436306 0.077520065 0.1154109
0.090952724 0.015273245 -0.03135695 -0.057973173 -0.046822295 -0.023826959 -0.025419973 -0.03359281
-0.043028526 -0.028810065 -0.005947951 -0.0090192035 0.012640043 -0.0008076442 0.049914025 0.07740343
00000000: cbae ff3b 1078 9f3c 4593 4d3c 007f 993b
00000010: 19a7 36bb a569 92bb 680a 983c ec65 90bb
00000020: 6295 14bc 804b 383c 25a8 f53a 32f3 483c
00000030: 12fc 863c 5217 0bba b2ee 843c 2043 483c
00000040: 3197 f13b 7e8b 313c 72c4 96ba 60f9 15bc
00000050: 0029 953c a0b0 593b 0e97 e43b 36de 533b
00000060: 6952 2e3b ec5e d43b bcd1 64bb 5e02 683c
00000070: a0f3 8dbb 58ff 153c 0a0c f63b 7e99 d1bb
00000080: 617f 073c 0291 3d3c f929 393c e27b 1abc
00000090: ac80 4f3c 9762 4a3b c453 d5bb 6006 423c
000000a0: 959f 3c3c bc67 6e3c e814 163c 759c c0bb
000000b0: 6368 f1bb 88fd 593c 0c2a e8bb 4690 233c
000000c0: 43c5 4239 dfec 1f3c fc33 0bbc 78d2 983c
000000d0: 3128 a33a 2f3d c23b d5c7 39bb 7298 ccbb
000000e0: 30bc 803c 1828 05bc 672f 593b f9e7 d23b
000000f0: 7317 3d3b efec 843c 5264 2abc 0b24 84bc
00000100: 2637 693b ce63 623b e0d7 c939 5adb b4bc
00000110: 7070 7cbc 5e7b 78bc 74ff 06bd 02ee c4bc
00000120: eb2d 17bc f4b6 76bc 30cd 70b8 8a1a 13bc
00000130: d8b7 2ebc 5d0e efba 6c9c 843b 2f42 f53b
00000140: 60c9 7eba 0a07 f63b 1bb8 b8bb 2398 563c
00000150: d7c4 8b3b 527a db3b 99b0 3d3c 614d aabb
00000160: 32bb 993c fd3c 813c d144 e2b9 eb14 8cbc
00000170: cee2 0bbd d037 03bd ecc1 4ebd 38d1 93bd
00000180: d5c2 8ebd 84cd 1cbd 1a37 95bd bf0e aabd
00000190: b1f5 aabd 106d 2abd b6a0 fdbc 3286 63bd
000001a0: 0781 b9bc b3db 23bc 615a 06bc 9b58 0fbb
000001b0: 51ee 3fbb fca3 f438 a658 793b 13c4 403c
000001c0: 5d42 a13c f1c3 8d3c 2abb 833c 04d1 403c
000001d0: d2c4 ce3b 5b0c ae3c 212e 2ebb 1bdb 93bc
000001e0: 1156 153b f714 babc 7e19 a2bd d0e8 8bbd
000001f0: 3dc4 31bd 8ba8 a9bd 29cb 96bd 2035 60bd
00000200: a403 27bd 7d89 d9b9 65ef 1e3c 7f4f 523c
00000210: 67c8 c43c 5ab0 f33b c230 273c 362b 073a
00000220: 4142 1cbc 0cea 443c 758e bebb 9a72 faba
00000230: ce50 413b 1cc0 0f3b 692b 993c 2aaa 8c3a
00000240: da68 193c 8f37 053d 3b23 d23b afcb 953c
00000250: 42f3 56bb ccaa 01bd c18a 63bd 8eed d9bc
00000260: 58ef 1d3c 413f 89bc 4f37 04bd b31f 39bc
00000270: 17d8 0dbc 77fe 6cba 9675 123d ff4e b63c
00000280: 6b7c c83b b9fc 583c 47ed edbb 15ea 5f3b
00000290: 59fe 88bc f3e1 2bbc 16bf 4439 5566 793c
000002a0: a856 8138 da36 cd3a 92a5 2bbc aa99 a33c
000002b0: aace 0d3d 43e9 883c c644 a33c 39c7 1c3d
000002c0: d753 513c c868 1bbd f160 49bd 5351 06bd
000002d0: c97f 00bd eff5 76bd 08f7 b9bd e0fc 29bd
000002e0: 925a f6bb 1bc5 683c 25a2 d33b 0ff1 3bbc
000002f0: 1e37 99bc 4aa3 8d3c 2362 ab3c 9722 ec3a
00000300: 496e c8bc 7128 4cbc f617 53bc 08ae 1b3a
00000310: 955d 2a3c 9c85 973c 234a 443b dc51 023c
00000320: 9bf0 123d cbd0 213d 3dd5 303d 24e4 573d
00000330: de7d bfba c8a1 acbc c22f 06bd b1b8 52bd
00000340: 5914 91bd 3ec9 64bd 88ba f4bc d711 193d
00000350: dd10 a23c d7b4 0d3d 314b 0dbd 2b75 16bd
00000360: ec38 b1bc 17f6 31bb f8a8 6b3c d5ec b1bc
00000370: 28cd d9bb c8a9 97bc 7a31 16bb ce3c ce3b
00000380: b6e9 183c 4cde 77bb b127 a33c 2967 043d
00000390: 32dd 953d d145 ad3d 26e0 be3d afb8 6c3d
000003a0: fc15 143c a886 9bbc 78fa 0cbc 2d3b 63bd
000003b0: a3a2 34bd 48c0 0cbd d7c2 9e3d 8d5c ec3d
000003c0: 6c45 ba3d a23c 7a3c 2570 00bd 4775 6dbd
000003d0: bcc8 3fbd c130 c3bc 8c3d d0bc 9d98 09bd
000003e0: ae3e 30bd 1603 ecbc 08e7 c2bb 48c5 13bc
000003f0: 2f18 4f3c 16b8 53ba a672 4c3d b185 9e3d

encoder.0.bias f4 [128]
0.0069736466 0.0016024538 -0.01560992 0.0006947818 -0.008947493 0.016805127 -0.039382093 0.019927194
0.002027636 -0.0035695152 0.0017928678 -0.00052555633 -0.013114782 -0.016602287 -0.0019274439 -2.3847977e-37
-2.208254e-37 -0.008299653 0.006718237 0.004607244 0.007765134 0.011649787 0.025495633 -0.011543458
0.006048299 -0.014465004 0.005571603 0.011803305 -0.0053375075 -0.00032304312 -0.011496585 -0.0063835066
0.013635173 -0.0018043639 0.00517559 -0.0042069484 -2.2862962e-37 -0.0015478592 -0.02269949 -0.03141845
-0.0029343357 -0.018866293 0.011265558 0.014255779 -2.944616e-37 0.02006254 0.0157776 0.014311298
0.010243472 -3.0916978e-37 0.0035869663 0.01679759 0.0153067885 0.011753424 0.017554214 -0.0001251599
0.004257318 -0.009541615 -2.7631606e-37 -0.0036102359 0.018387698 -0.0030666562 0.009420189 -0.010905143
0.01797889 -0.019014498 0.01476238 -2.8931e-37 -0.0025500066 0.006710372 0.016622242 0.007974013
-0.025973862 -0.013498631 0.0027374332 -0.0059853555 0.01513238 0.0088981 0.0171899 0.0057188626
-0.021251434 -0.0014295427 -2.8947665e-37 -0.0044375844 0.0052202297 -2.9924283e-37 0.011715102 0.013357301
0.02659601 0.014302387 0.017148245 -0.025967695 -0.019798292 -0.03134163 0.0132690305 0.013933581
0.020736953 -0.010761262 0.028636519 0.022719422 0.02881514 0.027013404 -0.014063863 -0.021524623
0.01565122 0.0030786379 0.025034394 0.024444276 0.014642888 -2.6844672e-37 0.029323284 0.025452081
-2.9840536e-37 0.018611414 0.008000563 -0.0045556617 0.002163164 0.00949566 0.008631618 0.0021228313
-0.009255415 0.0053350716 0.0112092225 0.02535949 0.0078610405 0.012860078 -0.010205359 0.019997733
00000000: 3083 e43b 6d09 d23a c0c0 7fbc 0422 363a
00000010: 8198 12bc e8aa 893c 1e4f 21bd 5b3e a33c
00000020: 16e2 043b 87ee 69bb a9fe ea3a 7dc5 09ba
00000030: 62df 56bc 8501 88bc 49a2 fcba 094d a282
00000040: 3649 9682 45fb 07bc a824 dc3b 5df8 963b
00000050: aa72 fe3b c0de 3e3c 38dc d03c c620 3dbc
00000060: cf30 c63b a0fe 6cbc fe91 b63b a662 413c
00000070: 42e6 aebb 1d5e a9b9 2c5c 3cbc bc2c d1bb
00000080: 1066 5f3c 6880 ecba ff97 a93b 71da 89bb
00000090: e698 9b82 89e1 caba 48f4 b9bc a2b0 00bd
000000a0: fc4d 40bb 7c8d 9abc 2d93 383c 1291 693c
000000b0: 7266 c882 325a a43c 0740 813c ef79 6a3c
000000c0: 3cd4 273c f968 d282 4f13 6b3b 199b 893c
000000d0: 53c9 7a3c 6f91 403c dbcd 8f3c 5b3d 03b9
000000e0: f980 8b3b 6f54 1cbc 0c0d bc82 b599 6cbb
000000f0: cca1 963c f4f9 48bb 2357 1a3c 7cab 32bc
00000100: 7748 933c 4bc4 9bbc e9dd 713c e9e4 c482
00000110: 031e 27bb aee2 db3b 5e2b 883c 6fa5 023c
00000120: 23c7 d4bc 5d29 5dbc 8266 333b cd20 c4bb
00000130: cded 773c 56c9 113c d5d1 8c3c 4c65 bb3b
00000140: 7d17 aebc 7e5f bbba f201 c582 2869 91bb
00000150: 760e ab3b 74a7 cb82 b3f0 3f3c 95d8 5a3c
00000160: e0df d93c 8f54 6a3c 7a7a 8c3c 34ba d4bc
00000170: 0730 a2bc 1560 00bd 5966 593c ad49 643c
00000180: 8be0 a93c 0150 30bc 2297 ea3c 151e ba3c
00000190: ba0d ec3c 374b dd3c 1e6c 66bc 6854 b0bc
000001a0: fd36 803c f9c2 493b ee14 cd3c 5d3f c83c
000001b0: b9e8 6f3c 04b2 b682 6237 f03c e280 d03c
000001c0: 8c15 cb82 f776 983c cb14 033c a947 95bb
000001d0: dfc3 0d3b af93 1b3c a16b 0d3c 331f 0b3b
000001e0: 06a4 17bc d3d1 ae3b e3a6 373c b5be cf3c
000001f0: 98cb 003c 14b3 523c 6134 27bc 49d2 a33c

encoder.2.weight f4 [64, 128]
0.2505595 0.08305413 -0.19656526 -0.044904787 0.17593826 -0.20640518 0.015641997 -0.2880892
-0.020902067 0.05584252 0.1328434 0.09776459 -0.006360093 0.22335152 0.029060641 3.0122229e-37
2.4987943e-37 -0.016633539 0.08841998 0.059657417 0.15627223 0.27738476 -0.07461551 0.0438089
0.22723904 -0.2116749 -0.3355246 -0.106986 0.0646764 0.0956261 0.019234153 0.050428446
0.05871312 0.14514832 0.01538763 -0.32914978 -3.0509552e-37 0.033471566 -0.20604004 -0.087352715
-0.03467505 0.1314262 -0.15886933 0.01716616 -3.1946863e-37 -0.09387497 0.07140602 -0.050778035
-0.48874596 1.8670316e-09 0.065330155 -0.04748401 -0.053403396 0.10343841 0.020534348 0.054526728
-0.004562847 -0.0034486672 -2.614945e-37 -0.10640623 0.1371325 -0.21071 0.11974329 0.0016629507
-0.0949193 -0.47195098 -0.088742286 2.705439e-37 0.048395984 0.21212882 -0.44208983 -0.07709447
-0.17544807 0.2105712 0.10257493 -0.07342933 0.032022316 -0.12205625 -0.10214101 0.016416807
0.18004538 0.09684662 3.0111083e-37 0.084193945 0.15627858 -2.8459513e-37 -0.12879606 0.013692835
-0.14001334 -0.040961992 -0.19561492 0.028942768 -0.14954203 -0.24801834 -0.21126273 0.0892968
-0.099080615 0.1385724 -0.19565031 -0.15805177 -0.008014829 0.054744933 -0.050418068 -0.10371545
-0.1681777 0.08138173 -0.032794658 -0.13656159 0.082283646 3.0407457e-37 0.099820316 -0.1633594
-3.0479977e-37 0.1890231 0.025523445 -0.09487824 -0.13629429 -0.039318785 0.1455609 -0.03603496
0.25606397 0.044844236 0.03456526 -0.13452312 -0.046640396 -0.07276906 0.086764365 0.0648368
-0.10225779 -0.06641372 0.030894052 0.047912516 0.1180869 0.03962463 0.08974856 0.045201313
-0.0068627624 -0.04085508 0.09385631 -0.069448374 -0.12415265 -0.24455404 0.023581047 3.1046353e-37
2.1110496e-37 -0.0485195 0.06313775 -0.11126488 -0.19625703 -0.010104354 0.04230226 0.00893805
-0.15865403 0.12959002 0.13125935 -0.083326556 -0.16856809 -0.11139768 0.06814116 0.054278113
0.010094561 0.047087375 -0.012494027 0.06869777 3.0631925e-37 0.09866543 0.060622107 0.117729776
0.087473296 0.11896148 0.1517257 0.0049706707 -3.05419e-37 0.035189424 0.061916806 -0.06171019
0.13930798 5.7418285e-05 0.04196791 0.019289091 0.021029407 -0.11594157 0.04266784 -0.008645019
0.117710255 -0.21986689 3.0998556e-37 -0.0874582 -0.03073469 0.077380985 0.027780889 -0.033973206
-0.0015027735 0.05640575 -0.025903648 -1.8469966e-37 -0.054213498 -0.017315673 0.15888776 0.029236285
0.23552048 -0.21688202 -0.04399765 0.025166802 -0.046805892 0.07077071 -0.001385226 0.034199916
-0.035061494 0.07988894 -2.8546241e-37 0.0035360851 -0.020002028 -2.7391567e-37 0.0031124062 -0.03665878
0.019974625 -0.033382792 0.023625888 -0.011594852 0.06621361 0.040832244 0.09413114 0.015941031
0.04992617 -0.01391685 0.04303814 0.02990135 0.047848877 -0.003314653 -0.08382078 0.07752118
0.024593903 -0.1182066 0.03118894 0.042182967 -0.08406116 -3.0306126e-37 0.024525564 0.039181657
-3.0200307e-37 -0.070393525 -0.013130454 0.0036253373 0.12332623 -0.025859222 0.012881155 -0.12140375
-0.0534376 -0.025537675 0.056109738 -0.013964077 0.04498863 -0.025847012 -0.0384638 -0.010114479
00000000: 5649 803e 4918 aa3d 6748 49be 15ee 37bd
00000010: 2929 343e e15b 53be a523 803c 6d80 93be
00000020: d03a abbc 20bb 643d 1a08 083e cd38 c83d
00000030: 5468 d0bb 43b6 643e 9510 ee3c 5300 cd02
00000040: 230f aa02 0f43 88bc 8915 b53d 565b 743d
00000050: d405 203e 6005 8e3e 04d0 98bd f670 333d
00000060: 5ab1 683e 4ec1 58be e1c9 abbe 7a1b dbbd
00000070: 0f75 843d 9ed7 c33d f190 9d3c 0f8e 4e3d
00000080: 2b7d 703d c3a1 143e 661c 7c3c 5286 a8be
00000090: 23a3 cf82 7b19 093d 29fc 52be fbe5 b2bd
000000a0: 6d07 0ebd 9794 063e a4ae 22be 0ca0 8c3c
000000b0: 496b d982 8541 c0bd 523d 923d a1fc 4fbd
000000c0: e93c fabe 2b4d 0031 d1cb 853d 987e 42bd
000000d0: 85bd 5abd 84d7 d33d a637 a83c 6b57 5f3d
000000e0: ef83 95bb 0903 62bb c4f6 b182 82eb d9bd
000000f0: 766c 0c3e 5dc4 57be f83b f53d 5ef7 d93a
00000100: 0d65 c2bd 8fa3 f1be 84be b5bd 651f b802
00000110: de3a 463d 4c38 593e 9959 e2be b5e3 9dbd
00000120: a9a8 33be fa9f 573e ce12 d23d 1e62 96bd
00000130: d529 033d a1f8 f9bd 4e2f d1bd 8a7c 863c
00000140: d15d 383e 8557 c63d e8ec cc02 e06d ac3d
00000150: 7e07 203e 77af c182 1de3 03be ea57 603c
00000160: a85f 0fbe c3c7 27bd 474f 48be 6219 ed3c
00000170: 8c21 19be 85f8 7dbe 4255 58be 3ee1 b63d
00000180: c7ea cabd ece5 0d3e 8e58 48be 53d8 21be
00000190: a150 03bc 393c 603d 2d83 4ebd c468 d4bd
000001a0: c636 2cbe 77ab a63d b153 06bd cdd6 0bbe
000001b0: 5484 a83d 43f1 ce02 986e cc3d b047 27be
000001c0: 9c6f cf82 468f 413e 8b16 d13c 864f c2bd
000001d0: bb90 0bbe bc0c 21bd eb0d 153e 6599 13bd
000001e0: d11a 833e 97ae 373d 4d94 0d3d 6ec0 09be
000001f0: 000a 3fbd f207 95bd 84b1 b13d 28c9 843d
00000200: 886c d1bd eb03 88bd 8615 fd3c ea3f 443d
00000210: 8bd7 f13d 704d 223d 18ce b73d 0325 393d
00000220: 06e1 e0bb a857 27bd bd37 c03d f33a 8ebd
00000230: bf43 febd 606c 7abe 0a2d c13c 604a d302
00000240: acab 8f02 62bc 46bd 5d4e 813d d7de e3bd
00000250: 9af7 48be bb8c 25bc 2245 2d3d e670 123c
00000260: 3476 22be 3fb3 043e da68 063e 1da7 aabd
00000270: 1d9d 2cbe 7824 e4bd 988d 8b3d ba52 5e3d
00000280: a863 253c b1de 403d bfb3 4cbc 6bb1 8c3d
00000290: 5778 d002 1a11 ca3d e34e 783d 4f1c f13d
000002a0: 3325 b33d 14a2 f33d fb5d 1b3e 02e1 a23b
000002b0: 7fdb cf82 c922 103d 7a9c 7d3d d3c3 7cbd
000002c0: c0a6 0e3e 6ad4 7038 8be6 2b3d 2804 9e3c
000002d0: dd45 ac3c c672 edbd 79c4 2e3d d6a3 0dbc
000002e0: 1312 f13d c924 61be 1af7 d202 491d b3bd
000002f0: 51c7 fbbc ec79 9e3d bf94 e33c 7d27 0bbd
00000300: b6f8 c4ba b709 673d e333 d4bc 7066 7b82
00000310: f90e 5ebd 99d9 8dbc 79b3 223e ef80 ef3c
00000320: 482c 713e 5216 5ebe e136 34bd 9c2a ce3c
00000330: 89b7 3fbd 3cf0 903d 7990 b5ba 3615 0c3d
00000340: a49c 0fbd d09c a33d 9146 c282 aabd 673b
00000350: 4bdb a3bc d76a ba82 83f9 4b3b 8427 16bd
00000360: d3a1 a33c 65bc 08bd 148b c13c 56f8 3dbc
00000370: 009b 873d b63f 273d d4c7 c03d c496 823c
00000380: 627f 4c3d 8003 64bc c348 303d adf3 f43c
00000390: 2ffd 433d a63a 59bb 3baa abbd 6dc3 9e3d
000003a0: 2779 c93c 4d16 f2bd f37f ff3c 0cc8 2c3d
000003b0: 4228 acbd b840 ce82 d6e9 c83c f27c 203d
000003c0: 5b88 cd82 7b2a 90bd 1e21 57bc 1197 6d3b
000003d0: 7692 fc3d b8d6 d3bc 7b0b 533c 87a2 f8bd
000003e0: 63e1 5abd 6334 d1bc 53d3 653d 96c9 64bc
000003f0: ff45 383d 1dbd d3bc 388c 1dbd 33b7 25bc

encoder.2.bias f4 [64]
0.040609106 -0.009852375 -3.0162606e-37 0.024121432 -0.01529964 0.020933136 0.11509514 -3.232063e-37
-3.0339022e-37 0.03004515 0.008919564 -3.1161138e-37 -0.0031432344 -2.886757e-37 0.05982328 -2.933308e-37
0.0039390125 -2.8881773e-37 -3.2299015e-37 0.024953973 0.03057911 -3.111965e-37 0.06667493 0.040995546
-0.0015812122 -0.024535522 -3.2082421e-37 0.04935323 0.0038547006 -3.0243418e-37 -2.9934213e-37 -0.008818902
-0.028609036 -0.010023793 -0.00068491837 -0.016426342 -0.056913752 -3.1285147e-37 0.0066325744 -0.028420083
0.019775808 0.020486291 0.016056962 -3.0756057e-37 -0.0062924433 -0.07478765 -3.107288e-37 -3.1189978e-37
0.038247798 0.07049237 0.075696155 -0.053685356 -0.011039395 0.037181392 -0.050047617 -3.0723453e-37
0.058136567 0.03176977 0.006674205 -0.009745325 0.002044184 -0.0076387175 -0.012625515 -0.015524657
00000000: bc55 263d db6b 21bc ac46 cd82 4f9a c53c
00000010: 57ab 7abc f87b ab3c 00b7 eb3d 7bf6 db82
00000020: 087a ce82 3f21 f63c 5d23 123c 5c12 d482
00000030: b9fe 4dbb 6676 c482 4109 753d 6fa1 c782
00000040: d512 813b 258f c482 d2d0 db82 466c cc3c
00000050: 0b81 fa3c 14ca d382 de8c 883d f2ea 273d
00000060: ad40 cfba b8fe c8bc 7657 da82 9d26 4a3d
00000070: 259f 7c3b 77d3 cd82 c1b8 cb82 287d 10bc
00000080: 7f5d eabc d63a 24bc 188c 33ba 8990 86bc
00000090: 651e 69bd 6aea d482 1156 d93b 3cd1 e8bc
000000a0: e000 a23c ded2 a73c e489 833c 9c50 d182
000000b0: d730 cebb 442a 99bd 9878 d382 9b44 d482
000000c0: b9a9 1c3d 4e5e 903d 9606 9b3d 2de5 5bbd
000000d0: 94de 34bc 844b 183d bbfe 4cbd ce17 d182
000000e0: 9c20 6e3d 0521 023d 4ab3 da3b dbaa 1fbc
000000f0: b7f7 053b 354e fabb 40db 4ebc 225b 7ebc

encoder.4.weight f4 [12, 64]
3.2246005e-37 -3.0480468e-37 -3.08267e-37 -3.046552e-37 -3.066069e-37 -3.1557266e-37 -3.2507533e-37 -2.8566525e-37
-3.165423e-37 -3.1081896e-37 -3.0747766e-37 3.217127e-37 -3.2580952e-37 2.8492247e-37 -3.015714e-37 -3.2079598e-37
-3.043546e-37 2.8152286e-37 -2.9300584e-37 -3.029282e-37 -3.0239415e-37 2.748344e-37 -3.0999534e-37 3.180766e-37
-3.0376465e-37 -3.0552466e-37 2.993344e-37 -3.036216e-37 -3.0340618e-37 3.0861834e-37 -3.1512198e-37 -3.0176243e-37
-3.031475e-37 -3.1303815e-37 -3.1455843e-37 -3.0375465e-37 -3.0163893e-37 3.0414576e-37 -3.154727e-37 -3.2540834e-37
-3.0181514e-37 -3.2223885e-37 -3.262942e-37 3.0548244e-37 -3.1555887e-37 -3.09554e-37 2.978598e-37 2.9604755e-37
-3.1502463e-37 3.1570122e-37 3.1474316e-37 -3.0659206e-37 -3.2034048e-37 -3.1083392e-37 -3.1092813e-37 -3.15807e-37
-3.1087744e-37 -3.2021156e-37 -3.0555089e-37 -3.193181e-37 -3.0726695e-37 -3.0759643e-37 -3.1668702e-37 -3.2285354e-37
-3.207168e-37 -2.8226272e-37 3.1816148e-37 -2.8361622e-37 -3.242518e-37 -2.819555e-37 -3.20052e-37 3.0910478e-37
3.062086e-37 -3.1136664e-37 -3.0201529e-37 3.0462126e-37 -3.0356557e-37 3.0831797e-37 -3.0311664e-37 -3.0682625e-37
-3.0112433e-37 3.1398664e-37 3.148345e-37 -3.0565945e-37 -3.1340316e-37 3.0310662e-37 -3.039431e-37 -3.0875928e-37
-2.7958055e-37 1.7151402e-37 -3.0187751e-37 -3.0243893e-37 -3.1617179e-37 2.6468237e-37 -3.0614838e-37 -3.241407e-37
-3.058032e-37 2.183672e-37 -2.4673337e-37 2.6249374e-37 -2.556292e-37 3.1362896e-37 -2.6380717e-37 -2.6685593e-37
2.7524006e-37 -3.0698203e-37 -3.0528325e-37 3.0932648e-37 -2.8469002e-37 -2.7712034e-37 -3.051088e-37 -3.027328e-37
-3.0237126e-37 -3.1247063e-37 -3.0081744e-37 -3.2007258e-37 -3.1913555e-37 -2.5264463e-37 -3.0645918e-37 -3.1482493e-37
-2.997685e-37 2.66693e-37 -3.1435642e-37 -3.1446413e-37 -3.079002e-37 -3.078116e-37 -3.051671e-37 -2.8357187e-37
-0.17685524 -0.19904923 -3.03149e-37 0.04330168 0.03521047 -0.030832298 0.04790267 -3.1718913e-37
3.1065796e-37 0.022182485 -0.053661723 -3.1719149e-37 0.06292204 -2.2158582e-37 0.03417204 -2.6921598e-37
-0.014288676 3.02328e-37 3.2152024e-37 0.0024892634 0.07873695 2.9410017e-37 0.051929872 -0.23593622
0.011718855 0.38878834 -3.1428912e-37 0.0339621 0.034448825 -2.8931417e-37 -3.2583519e-37 0.021212727
0.034324486 0.067688175 -0.13275649 0.008342481 -0.028969336 -3.1805215e-37 0.08446338 -0.033474103
-0.15421875 0.08762383 0.031404253 3.0228698e-37 -0.15336826 0.054214124 2.751744e-37 3.101749e-37
0.10289946 -0.3237743 -0.2329166 0.019856758 0.03061349 -0.11238322 -0.01922634 -3.0972615e-37
0.08361603 -0.0020456135 0.088918 -0.016662333 0.045120835 0.038135964 0.05738233 -0.023740891
-0.22487292 -0.25816613 -3.1271928e-37 -0.10836434 0.20440908 0.04698612 -0.17012411 -3.145325e-37
3.0894593e-37 -0.13101712 -0.16819428 3.060816e-37 -0.0930527 2.3061463e-37 0.100035 -2.5994131e-37
0.12108611 -3.1313635e-37 -3.1629248e-37 0.1781701 0.038439002 2.8738398e-37 -0.013829819 -0.33688906
0.045710035 0.23436007 3.0194117e-37 0.09766148 0.0024206662 -2.863276e-37 -3.0356463e-37 0.05622368
-0.022968657 0.2741026 -0.08687947 0.017100837 0.054575548 -3.2575586e-37 -0.08595602 0.055747803
-0.20761593 -0.118050076 -0.16065566 -2.5827729e-37 -0.47490188 -0.10107964 3.0239514e-37 2.807466e-37
0.062725686 0.11728582 -0.343863 -0.03663583 0.006217057 0.046806317 0.10478155 3.0563613e-37
-0.034622982 0.023043988 -0.011020239 -0.14051913 -0.006605821 0.07302753 0.006438775 0.09895381
00000000: 7774 db02 7770 cf82 b0cb d182 6c56 cf82
00000010: 75aa d082 83c4 d682 1c3c dd82 e869 c282
00000020: 726d d782 4d88 d382 2a42 d182 42f2 da02
00000030: 06bc dd82 7fe8 c102 263d cd82 8b52 da82
00000040: 0d22 cf82 3398 bf02 d168 c782 8929 ce82
00000050: 7ecc cd82 e80a bb02 cef8 d282 c278 d802
00000060: 44bb ce82 e7ed cf82 68b7 cb02 58a2 ce82
00000070: d07c ce82 e608 d202 fe75 d682 6e5e cd82
00000080: be4f ce82 f00a d582 cf13 d682 86b9 ce82
00000090: ea48 cd82 aafd ce02 19b3 d682 2176 dd82
000000a0: 9d67 cd82 ed4d db82 7810 de82 8ce6 cf02
000000b0: 1cc2 d682 eaab d282 7fb6 ca02 c27a c902
000000c0: 0865 d682 e9da d602 fe33 d602 dfa7 d082
000000d0: 2f03 da82 e88a d382 529b d382 57ed d682
000000e0: 7d92 d382 b9ec d982 79f2 cf82 0f51 d982
000000f0: 741d d182 db56 d182 a986 d782 05b9 db82
00000100: bf44 da82 1a19 c082 8c87 d802 ea04 c182
00000110: a2ac dc82 94e3 bf82 ecd0 d982 a65d d202
00000120: 1065 d002 b8e7 d382 7c8a cd82 8250 cf02
00000130: 9598 ce82 91d4 d102 5e4a ce82 acd0 d082
00000140: 42ef cc82 30b0 d502 e843 d602 6305 d082
00000150: 884a d582 9f48 ce02 5bda ce82 7421 d282
00000160: cd45 be82 ea73 6902 7b72 cd82 4bd4 cd82
00000170: e52c d782 2c22 b402 925a d082 4699 dc82
00000180: 6e1e d082 ef9c 9402 04eb a782 dca4 b202
00000190: e3f8 ad82 df71 d502 b189 b382 dc9c b582
000001a0: 9551 bb02 d0eb d082 d8c3 cf82 4684 d202
000001b0: ffbf c182 2c99 bc82 73a5 cf82 7e07 ce82
000001c0: 81c8 cd82 10a8 d482 cab9 cc82 82d4 d982
000001d0: 4131 d982 e7f0 ab82 b890 d082 3d42 d682
000001e0: 0a03 cc82 7980 b502 9df0 d582 6103 d682
000001f0: c88b d182 587c d182 9baf cf82 30fd c082
00000200: 8a19 35be 90d3 4bbe 0150 ce82 1a5d 313d
00000210: db38 103d 0494 fcbc 9735 443d 24de d782
00000220: 406c d302 0bb8 b53c 65cc 5bbd 8dde d782
00000230: 45dd 803d b2cd 9682 fbf7 0b3d 0a38 b782
00000240: 0d1b 6abc f7c0 cd02 bad0 da02 e922 233b
00000250: d740 a13d 7a27 c802 6bb4 543d 4499 71be
00000260: 7100 403c 440f c73e e3e4 d582 d81b 0b3d
00000270: 361a 0d3d a3e5 c482 7fc0 dd82 50c6 ad3c
00000280: d597 0c3d 19a0 8a3d 51f1 07be e7ae 083c
00000290: 1a51 edbc 8074 d882 23fb ac3d 241c 09bd
000002a0: 85eb 1dbe 1f74 b33d bfa1 003d d2b9 cd02
000002b0: 920c 1dbe a10f 5e3d 2446 bb02 1718 d302
000002c0: f4bc d23d bfc5 a5be b081 6ebe a4aa a23c
000002d0: 24c9 fa3c 2c29 e6bd 8f80 9dbc e8c9 d282
000002e0: e23e ab3d b30f 06bb a41a b63d 727f 88bc
000002f0: a0d0 383d 7534 1c3d bc09 6b3d 427c c2bc
00000300: 1645 66be 5a2e 84be 62d3 d482 20ee ddbd
00000310: 9d50 513e 8574 403d 0435 2ebe 4a0f d682
00000320: f941 d202 5a29 06be 1f3b 2cbe f04e d002
00000330: 6a92 bebd bcf2 9c02 26df cc3d 2ae8 b082
00000340: fffb f73d 0c1c d582 ec41 d782 3972 363e
00000350: 3772 1d3d 5a95 c302 7796 62bc b97c acbe
00000360: 723a 3b3d 16fc 6f3e 927d cd02 be02 c83d
00000370: 0aa4 1e3b 4edd c282 6b98 ce82 cd4a 663d
00000380: c428 bcbc 2d57 8c3e dded b1bd 0e17 8c3c
00000390: 9c8a 5f3d adb2 dd82 b609 b0bd cf57 643d
000003a0: 4599 54be 3dc4 f1bd eb82 24be 40c6 af82
000003b0: 5726 f3be d802 cfbd aacc cd02 f510 bf02
000003c0: 5376 803d 8c33 f03d d00e b0be 740f 16bd
000003d0: 74b8 cb3b fbb7 3f3d b697 d63d 5301 d002
000003e0: d4d0 0dbd bfc6 bc3c 3c8e 34bc 3fe4 0fbe
000003f0: a575 d8bb 758f 953d 5cfc d23b 4ca8 ca3d

encoder.4.bias f4 [12]
-3.0389256e-37 -2.9128076e-37 -0.0262123 0.08880255 -0.026614467 0.06852981 0.08564091 -0.0046754954
0.14518161 -3.1121563e-37 -0.045887217 -0.07470236
00000000: 8dd1 ce82 443c c682 2dbb d6bc 1dde b53d
00000010: 9506 dabc 5b59 8c3d 8064 af3d e634 99bb
00000020: 7daa 143e 69cd d382 3cf4 3bbd 8dfd 98bd

encoder.6.weight f4 [2, 12]
-3.1425847e-37 -2.8881416e-37 -0.057104263 -0.44687554 -0.26961437 0.20205353 -0.75278455 -0.16168855
0.22526915 3.0491143e-37 0.15964125 -0.3007182 3.1591523e-37 2.9671677e-37 -0.29203245 -0.6846115
-0.21156529 -0.35620648 0.5783937 0.27569422 0.341329 3.1278083e-37 -0.11404386 0.08251155
00000000: 8cdf d582 868e c482 29e6 69bd dfcc e4be
00000010: e50a 8abe 1fe7 4e3e 7db6 40bf af91 25be
00000020: f5ac 663e 1083 cf02 ff78 233e bcf7 99be
00000030: 3200 d702 5aef c902 4785 95be b342 2fbf
00000040: 92a4 58be b260 b6be 9c11 143f cb27 8d3e
00000050: adc2 ae3e 1bde d402 d48f e9bd d1fb a83d

encoder.6.bias f4 [2]
0.31766272 0.30477026
00000000: b0a4 a23e d90a 9c3e

decoder.0.weight f4 [12, 2]
0.5851623 0.18049803 0.0246005 -0.6506781 0.26124895 0.7538071 0.36052915 0.13041957
0.84474784 0.8370681 0.87328357 0.17430219 -0.2583118 -0.09962224 -0.587296 0.7355284
-0.671977 -0.71619195 -0.3673344 0.55837137 0.5695078 -0.81979054 -0.72773665 0.40169173
00000000: 32cd 153f 7ad4 383e fd86 c93c d792 26bf
00000010: 6cc2 853e 81f9 403f 4797 b83e b58c 053e
00000020: 6541 583f 184a 563f 838f 5f3f 467c 323e
00000030: 7241 84be bf06 ccbd 0859 16bf 974b 3c3f
00000040: af06 2cbf 5b58 37bf 4113 bcbe 6df1 0e3f
00000050: 43cb 113f cbdd 51bf f34c 3abf 8aaa cd3e

decoder.0.bias f4 [12]
1.208179 -0.92532355 0.9442782 1.4763999 -0.8800666 -0.38615862 -0.036971774 0.6376453
0.8631399 -0.015423313 -0.06928259 -0.54438734
00000000: 9ca5 9a3f 01e2 6cbf 37bc 713f acfa bc3f
00000010: 0b4c 61bf 95b6 c5be b76f 17bd b93c 233f
00000020: bdf6 5c3f 10b2 7cbc 08e4 8dbd f85c 0bbf

decoder.2.weight f4 [64, 12]
-3.0323933e-37 2.964223e-37 -2.7980007e-37 3.1445523e-37 -3.235586e-37 -2.855995e-37 -3.211264e-37 3.0403267e-37
-3.031037e-37 -2.9990547e-37 -2.7676784e-37 -3.239225e-37 -0.1479365 0.12420731 -0.043953784 0.12839018
0.24483237 0.0944875 -0.106922716 0.34679022 -0.27422518 0.42944852 0.16004248 0.21236171
-0.06670433 0.031099448 -0.12227168 0.111690715 -0.24960725 -0.4875277 -0.12189037 0.32829145
0.28718004 -0.012373339 0.09259719 0.14101732 0.17459251 0.25159672 0.035678744 -0.035802294
-0.7482248 0.0031327112 0.12699185 -0.06931784 0.46817818 -0.0034484847 0.08473573 -0.04133288
-0.048981853 -0.023001064 -0.29129836 0.18415058 0.18312086 0.29481226 -0.06911246 0.02626347
0.050883293 0.19582133 0.21841143 0.3021555 0.28220907 -0.18286948 0.22988686 0.074382044
-0.36867473 0.20137389 0.11358819 0.28025612 0.20040224 -0.22574292 -0.05623832 -0.14548334
-3.139432e-37 -2.9531432e-37 -3.1391133e-37 3.1805031e-37 -3.2223659e-37 -3.223041e-37 3.2166508e-37 -3.1678988e-37
-2.3197956e-37 3.1683134e-37 -2.2173411e-37 -3.0644707e-37 -0.15043373 -0.26286227 -0.26600936 0.1736611
0.18647444 0.03820251 -0.02632575 0.14544056 0.22436477 0.104849845 0.07316601 -0.17131372
0.047408313 -0.17799908 0.027840555 -0.24935916 0.39404145 -0.088046394 0.038597383 -0.034187604
0.288931 0.29718783 0.052122887 0.09521309 0.20749794 0.17910351 0.05984958 0.4086472
0.2105554 -0.012887067 -0.2521148 -0.1855696 -0.069679916 -0.11393847 -0.013339827 -0.1627327
-3.1706355e-37 -3.0104155e-37 -1.5113197e-37 -3.0676643e-37 -1.2082252e-37 -3.0594709e-37 3.2177958e-37 -3.2266296e-37
-3.0374451e-37 2.9176126e-37 -2.2289264e-37 -3.0866652e-37 0.23180969 0.23790626 0.084640734 0.26175287
-0.39650765 -0.13469289 0.1527865 0.05683123 0.35456762 -0.03831645 0.08533427 0.0785751
-0.06569313 -0.28365812 0.22061963 0.18399611 0.385021 -0.2261274 -0.33894667 -0.046292935
0.1867421 0.020080846 0.24524146 -0.20264393 0.01502835 -0.2746123 0.1898429 0.19554177
-0.34454447 0.17735265 -0.094197735 -0.003681275 -0.11628178 0.15291189 0.14795801 -0.010092882
-0.32806373 0.13145715 -0.28905976 -0.43898433 -0.21449052 -0.6398533 0.035369184 0.3773552
-0.0720487 0.14084215 0.029560538 0.35680985 0.2968438 0.2682371 0.13713247 0.01914802
-0.20483333 0.094443396 0.22290784 -0.20614393 -0.15895887 -0.03672995 0.35958207 0.29458427
0.038967766 0.12092082 0.107203074 -0.08491855 0.082680695 0.33040106 -0.03439112 -0.08066317
0.049788103 -0.11631982 0.18175875 0.4235124 0.10203494 -0.08680525 0.056175373 0.19631281
-0.1479062 -0.06751743 0.047067642 0.10806816 0.32385284 -0.015223345 -0.13316277 -0.13724774
-3.0855157e-37 -3.1674672e-37 -3.2409141e-37 -3.097608e-37 2.9698743e-37 -2.8683185e-37 -3.0503236e-37 -1.9917153e-37
-3.1391074e-37 -3.1064706e-37 -3.1460368e-37 -3.1699001e-37 0.022473322 -0.37672022 0.22603793 0.025527123
-0.05620359 -0.10367482 -0.01331564 0.2843004 0.13606764 -0.19093345 0.16153632 -0.32490873
-0.20774376 0.21625823 0.2540695 0.02765217 0.27192852 0.3822676 -0.053721912 -0.065543465
-0.22744088 0.02777684 0.18866393 0.15750355 -0.13552073 -3.0504685e-37 0.3719366 0.22494398
00000000: be5f ce82 0cbc c902 0c6c be82 d401 d602
00000010: dc33 dc82 735e c282 1c8c da82 f6e9 ce02
00000020: 1d48 ce82 e71a cc82 c25b bc82 4273 dc82
00000030: aa7c 17be 6760 fe3d e208 34bd b778 033e
00000040: 56b5 7a3e aa82 c13d 4cfa dabd 7d8e b13e
00000050: 3e67 8cbe ade0 db3e 2de2 233e 5975 593e
00000060: 489c 88bd 45c4 fe3c 9369 fabd 1abe e43d
00000070: 0b99 7fbe 3b9d f9be a9a1 f9bd d115 a83e
00000080: 4309 933e 8cb9 4abc 98a3 bd3d d866 103e
00000090: 61c8 323e 49d1 803e e023 123d 6da5 12bd
000000a0: a98b 3fbf 2c4e 4d3b 270a 023e 83f6 8dbd
000000b0: 0db5 ef3e f9ff 61bb ed89 ad3d aa4c 29bd
000000c0: 32a1 48bd ba6c bcbc 0f25 95be f891 3c3e
000000d0: 0984 3b3e a2f1 963e d58a 8dbd 7d26 d73c
000000e0: 006b 503d 6385 483e 3fa7 5f3e 20b4 9a3e
000000f0: b57d 903e 2342 3bbe 7667 6b3e 9d55 983d
00000100: efc2 bcbe f534 4e3e eda0 e83d bb7d 8f3e
00000110: 3f36 4d3e 2729 67be 275a 66bd 96f9 14be
00000120: 9fa8 d582 03fb c882 11a3 d582 2e74 d802
00000130: 884d db82 4b59 db82 f6e9 da02 9598 d782
00000140: 8ae0 9d82 ce9f d702 88e7 9682 9c8e d082
00000150: 4d0b 1abe e295 86be 6132 88be 37d4 313e
00000160: 28f3 3e3e 3c7a 1c3d 19a9 d7bc 5fee 143e
00000170: e1bf 653e 84bb d63d 10d8 953d dd6c 2fbe
00000180: 382f 423d 6445 36be e011 e43c 0258 7fbe
00000190: cdbf c93e ab51 b4bd 4a18 1e3d 4d08 0cbd
000001a0: c4ee 933e 0129 983e cf7e 553d 15ff c23d
000001b0: 577a 543e e966 373e d524 753d 353a d13e
000001c0: d69b 573e 4724 53bc 3115 81be f505 3ebe
000001d0: 58b4 8ebd 9358 e9bd 4a8f 5abc 67a3 26be
000001e0: 43c8 d782 d6e0 cc82 ceb5 4d82 40c6 d082
000001f0: 8174 2482 8037 d082 e9fd da02 d197 db82
00000200: c2b7 ce82 fb8f c602 60b1 9782 4b11 d282
00000210: 855f 6d3e b39d 733e 1f58 ad3d 7904 863e
00000220: 0d03 cbbe efec 09be 1074 1c3e ddc7 683d
00000230: e389 b53e b6f1 1cbd bcc3 ae3d fbeb a03d
00000240: 1f8a 86bd a33b 91be 1dea 613e 7a69 3c3e
00000250: 7921 c53e f18d 67be 6b8a adbe a99d 3dbd
00000260: 5239 3f3e 9680 a43c 9420 7b3e e481 4fbe
00000270: 7839 763c fc99 8cbe 2d66 423e 1a3c 483e
00000280: 2268 b0be ef9b 353e beea c0bd 8c41 71bb
00000290: 2425 eebd ef94 1c3e 4e82 173e 9e5c 25bc
000002a0: f8f7 a7be b49c 063e a4ff 93be 8ec2 e0be
000002b0: 67a3 5bbe 6dcd 23bf 47df 103d b334 c13e
000002c0: 458e 93bd ed38 103e f128 f23c c8af b63e
000002d0: e9fb 973e 6056 893e 746c 0c3e 4fdc 9c3c
000002e0: d4bf 51be 8a6b c13d f441 643e 6517 53be
000002f0: 1dc6 22be 2572 16bd 241b b83e c0d3 963e
00000300: aa9c 1f3d 56a5 f73d 498d db3d c7e9 adbd
00000310: 7f54 a93d 542a a93e b4dd 0cbd bb32 a5bd
00000320: 9cee 4b3d 1639 eebd f71e 3a3e 9ed6 d83e
00000330: b2f7 d03d f3c6 b1bd 2618 663d 3a06 493e
00000340: b974 17be 9446 8abd 00ca 403d d752 dd3d
00000350: 0ad0 a53e 566b 79bc d25b 08be ac8a 0cbe
00000360: 44fd d182 1091 d782 b090 dc82 f1cf d282
00000370: 821e ca02 2835 c382 2298 cf82 938c 8782
00000380: f7a2 d582 5a6a d382 b11b d682 73bb d782
00000390: f919 b83c 79e1 c0be 7d76 673e 421e d13c
000003a0: bc35 66bd 7753 d4bd d829 5abc d28f 913e
000003b0: 5155 0b3e 0f84 43be c769 253e 705a a6be
000003c0: c8ba 54be cc72 5d3e 6615 823e ce86 e23c
000003d0: 373a 8b3e 94b8 c33e 820b 5cbd a73b 86bd
000003e0: 43e6 68be 418c e33c 1e31 413e 9c48 213e
000003f0: f2c5 0abe a89a cf82 796e be3e b757 663e

decoder.2.bias f4 [64]
-3.2240147e-37 -0.27900243 0.70505476 0.5448048 -0.47697055 0.48272482 -7.53445e-38 0.4501876
0.0043674815 0.3783951 -2.4307156e-37 0.6305232 0.0804882 0.57844174 0.3927137 -0.17526925
-0.48322228 0.8500985 -2.4801649e-37 0.5288068 -0.33859697 0.507521 0.064283185 -0.09761484
-0.028713988 0.8622013 0.89841837 -0.04863618 -0.11810147 0.34707838 0.63126487 0.02559255
-3.1407208e-37 -0.08380723 0.72317934 0.6565664 0.5223349 0.29818404 -0.06293192 0.27871674
0.32474777 0.2349646 -0.19009158 -0.71495444 -0.3412319 0.52367663 -0.24235399 0.77267534
-3.1642073e-37 -0.008112027 0.43215424 0.8172512 -2.48849e-37 -0.05077664 -0.02415053 0.033590037
-0.40155247 0.37773174 0.0980599 -0.18153225 0.12674412 -3.071011e-37 0.657848 0.3628235
00000000: 426a db82 68d9 8ebe 787e 343f 5478 0b3f
00000010: 7c35 f4be b527 f73e 741b cd81 fd7e e63e
00000020: 171d 8f3b 01bd c13e 0a6d a582 f869 213f
00000030: ffd6 a43d c214 143f c511 c93e c879 33be
00000040: e968 f7be 0ea0 593f 91ca a882 e25f 073f
00000050: 955c adbe e5ec 013f e7a6 833d 4aea c7bd
00000060: 9939 ebbc 39b9 5c3f bffe 653f bb36 47bd
00000070: 2fdf f1bd 42b4 b13e 939a 213f 78a7 d13c
00000080: 13bf d582 20a3 abbd 4822 393f bc14 283f
00000090: bdb7 053f 94ab 983e 73e2 80bd f6b3 8e3e
000000a0: 5745 a63e 8f9a 703e 5ea7 42be 4107 37bf
000000b0: f3b5 aebe ac0f 063f a52b 78be 0dce 453f
000000c0: 4458 d782 4fe8 04bc 5243 dd3e 6037 513f
000000d0: 9c5b a982 2bfb 4fbd 55d7 c5bc b595 093d
000000e0: 4998 cdbe 0e66 c13e a1d3 c83d 97e3 39be
000000f0: 36c9 013e 8f00 d182 ba68 283f 00c4 b93e

decoder.4.weight f4 [128, 64]
2.9565003e-37 0.05568201 0.059390415 0.038899302 -0.04069905 -0.08669399 2.4892962e-37 0.13354781
0.11080467 -0.07383646 2.7392394e-37 0.022824472 -0.037129875 -0.10481096 -0.060600474 -0.041922852
0.021225637 0.029172493 2.8708955e-37 0.081407376 0.004176057 0.03040666 -0.097353354 -0.051458105
0.021695312 0.096003324 -0.048570752 0.05231646 0.0021469586 -0.0147637185 0.01775943 0.006521193
-2.8497855e-37 0.031931464 -0.024583353 0.035019666 0.10531623 0.025016472 -0.00091999926 0.043361045
-0.0724858 0.0010404361 0.07418491 0.11194798 -0.048714746 -0.09604178 -0.016422976 -0.07509255
-3.04583e-37 -0.12899812 -0.0011005788 0.082469776 2.6532015e-37 0.12687707 0.11270363 0.06554178
-0.07233584 0.07434782 -0.028861815 0.07063898 0.112968296 -2.6436964e-37 -0.04032821 0.07182143
3.0766465e-37 -0.110413976 -0.018232055 0.032783244 -0.060597382 -0.059851922 -1.2128248e-37 0.06962521
-0.0006383917 -0.06337817 3.0438485e-37 0.01652677 0.051349767 -0.10174479 0.035574365 -0.030493798
0.06632439 -0.02290206 -3.1102118e-37 -0.036754794 -0.013632225 -0.11001846 0.040005308 0.053171493
-0.05381674 -0.0041922536 0.06552073 0.080574244 0.03393306 -0.024581542 0.06748435 0.030991752
-2.0468464e-37 -0.032039262 -0.09661526 -0.22608249 0.01019383 0.06591608 0.030655194 -0.08882799
0.0025483922 0.05670383 0.05963563 -0.10566683 0.05955486 -0.009117496 0.02679398 0.034079667
3.1216549e-37 -0.08527874 -0.008926523 -0.078083776 3.1460958e-37 0.080235176 0.036564663 -0.054553825
-0.06814918 -0.015312042 0.088949226 0.019986859 0.04817344 9.578033e-38 0.09474814 -0.05680504
2.8956301e-37 0.02291332 -0.00084435346 0.11842432 -0.06239906 -0.07208341 2.3123848e-37 -0.010808645
0.12359666 0.040861025 -2.9866406e-37 0.15494356 0.07950724 -0.07810937 -0.033866707 -0.030238355
-0.023001874 0.0061855908 -3.1193124e-37 0.04413106 -0.025703263 0.050611842 0.028912308 -0.052076384
0.087788455 0.04029553 -0.117049694 0.13290225 -0.04213427 -0.08795642 0.1581625 -0.073915526
-2.114145e-37 0.038353104 -0.02242328 0.1296339 -0.026808547 0.113198906 0.08050096 0.07742166
0.0056187776 0.0039059445 -0.022396669 -0.07638416 -0.047868535 0.023042258 0.043878667 0.20895134
5.1717196e-38 -0.09783684 -0.024931282 0.014210521 3.130795e-37 -0.077447884 0.054892972 -0.08616918
-0.18108432 0.15674677 0.04289603 0.04674267 -0.07012784 -1.3289639e-37 -0.13863857 -0.06768967
3.194496e-37 -0.20531523 0.22590046 0.0052668485 -0.041111127 0.020902945 1.7369375e-37 0.15376647
-0.4640885 0.07531196 2.9944594e-37 0.18481079 -0.07448434 0.04360189 -0.30624184 0.045325592
-0.029858164 0.2246303 3.0559986e-37 0.040329974 -0.1492792 -0.30379605 -0.1341026 -0.26935807
0.0053935144 0.23093018 0.24339199 -0.017754205 0.12918991 0.19224161 0.20946524 -0.32734433
-3.0850254e-37 0.09298076 0.24363379 0.15847507 0.3907704 -0.0214439 0.06134381 -0.02618377
-0.24364033 -0.12854806 -0.3478901 -0.142499 -0.60734326 0.21313877 -0.04465689 0.25676927
2.7540517e-37 -0.17194404 0.15529491 0.28243223 -3.062378e-37 -0.13347575 -0.10586066 0.09153409
0.10019016 -0.30041662 -0.07941028 -0.48850584 0.0027577663 -2.1736915e-37 0.19220786 0.10209262
00000000: 8035 c902 d212 643d 5d43 733d e054 1f3d
00000010: 0cb4 26bd 9e8c b1bd a869 a902 c2c0 083e
00000020: 8fed e23d 9237 97bd 486c ba02 63fa ba3c
00000030: 7f15 18bd 21a7 d6bd 3438 78bd 4cb7 2bbd
00000040: 63e1 ad3c 27fb ee3c 0e62 c302 e9b8 a63d
00000050: 4ed7 883b 6317 f93c 3261 c7bd bcc5 52bd
00000060: 5eba b13c 649d c43d 20f2 46bd c949 563d
00000070: fdb3 0c3b 86e3 71bc 397c 913c bbaf d53b
00000080: 44f2 c182 91ca 023d 0763 c9bc c870 0f3d
00000090: 09b0 d73d 58ef cc3c 1b2c 71ba 5a9b 313d
000000a0: 6f73 94bd 3e5f 883a 42ee 973d fc44 e53d
000000b0: 1d89 47bd 8eb1 c4bd 7a89 86bc 1fca 99bd
000000c0: d849 cf82 1518 04be 4c41 90ba eae5 a83d
000000d0: 4a91 b402 10ec 013e 29d1 e63d c53a 863d
000000e0: d024 94bd ab43 983d 9d6f ecbc 2bab 903d
000000f0: ec5b e73d b0eb b382 312f 25bd 1d17 933d
00000100: be62 d102 b920 e2bd 645b 95bc b947 063d
00000110: f634 78bd 4a27 75bd c714 2582 a997 8e3d
00000120: be59 27ba 6acc 81bd 5227 cf02 2663 873c
00000130: 2254 523d 935f d0bd 6db6 113d 21ce f9bc
00000140: 15d5 873d 1a9d bbbc 88ab d382 328c 16bd
00000150: b259 5fbc 5c51 e1bd 9bdc 233d 5aca 593d
00000160: f16e 5cbd 2c5f 89bb bc2f 863d 1c04 a53d
00000170: 64fd 0a3d 3b5f c9bc 3c35 8a3d 6ae2 fd3c
00000180: 184d 8b82 9a3b 03bd 39de c5bd 2b82 67be
00000190: 0604 273c 02ff 863d 9a20 fb3c 73eb b5bd
000001a0: ed02 273b 4642 683d 7e44 743d da67 d8bd
000001b0: ccef 733d 8d61 15bc 0c7f db3c 1f97 0b3d
000001c0: e672 d402 9fa6 aebd 8d40 12bc 63ea 9fbd
000001d0: b81c d602 5752 a43d d4c4 153d d573 5fbd
000001e0: cc91 8bbd 5cdf 7abc 032b b63d 7bbb a33c
000001f0: 8351 453d 935e 0202 500b c23d 67ac 68bd
00000200: fe10 c502 b7b4 bb3c 9a57 5dba 7388 f23d
00000210: 2896 7fbd 78a0 93bd 6d5f 9d02 be16 31bc
00000220: 3f20 fd3d e45d 273d 9e42 cb82 86a9 1e3e
00000230: b1d4 a23d cef7 9fbd d1b7 0abd 6db6 f7bc
00000240: 6d6e bcbc 7fb0 ca3b 164a d482 c5c2 343d
00000250: a68f d2bc 5d4e 4f3d 81d9 ec3c 0c4e 55bd
00000260: 6fca b33d ed0c 253d c0b7 efbd 8717 083e
00000270: fc94 2cbd 7f22 b4bd 5af5 213e 0661 97bd
00000280: 9ae1 8f82 2518 1d3d 07b1 b7bc c0be 043e
00000290: 999d dbbc d4d4 e73d b0dd a43d 3f8f 9e3d
000002a0: b91d b83b e0fa 7f3b 3879 b7bc 4c6f 9cbd
000002b0: cc11 44bd 1ec3 bc3c 1eba 333d 57f7 553e
000002c0: a0c9 8c01 ae5e c8bd b03c ccbc 3fd3 683c
000002d0: 2412 d502 ff9c 9ebd 74d7 603d 7879 b0bd
000002e0: 2b6e 39be 3a82 203e bfb3 2f3d 3e75 3f3d
000002f0: 2f9f 8fbd a2e3 3482 45f7 0dbe e2a0 8abd
00000300: f867 d902 283e 52be 7352 673e 8795 ac3b
00000310: 2464 28bd a73c ab3c 706b 6c02 f574 1d3e
00000320: 029d edbe 283d 9a3d d7ca cb02 0a3f 3d3e
00000330: 3f8b 98bd e597 323d bbcb 9cbe 54a7 393d
00000340: 1c99 f4bc 7c05 663e 01fb cf02 0b31 253d
00000350: a6dc 18be 288b 9bbe 3152 09be 4de9 89be
00000360: 14bc b03b f678 6c3e c03b 793e 4471 91bc
00000370: 5c4a 043e fcda 443e 0e7e 563e ad99 a7be
00000380: b9f4 d182 b26c be3d 237b 793e 4a47 223e
00000390: 0f13 c83e 1eab afbc a643 7b3d 587f d6bc
000003a0: da7c 79be 1aa2 03be a71e b2be 42eb 11be
000003b0: d97a 1bbf 0d41 5a3e 25ea 36bd 4377 833e
000003c0: 596e bb02 1912 30be a105 1f3e f59a 903e
000003d0: 266a d082 dead 08be 79cd d8bd 3a76 bb3d
000003e0: 8030 cd3d 35d0 99be dba1 a2bd 701d fabe
000003f0: a4bb 343b 0cef 9382 23d2 443e f015 d13d

decoder.4.bias f4 [128]
0.008871805 -0.056733914 -0.017813686 0.17888395 -0.029029746 0.07479152 -3.0700898e-37 -0.031677313
0.12205936 0.04091696 0.15427276 0.201109 0.098104894 -2.7409048e-37 -2.560899e-37 0.08555494
-0.06143183 -0.12955299 0.04867884 0.26022384 -0.0020962344 0.11666214 0.10568832 0.08018421
-0.03231429 -3.0454913e-37 -3.148039e-37 -2.3237322e-37 0.024112504 -3.062339e-37 -2.884133e-37 0.28907475
-2.1881448e-37 0.21504726 0.28063783 -2.5121353e-37 -2.9407643e-37 0.11312709 0.053298216 0.38369465
0.16964729 -0.23434804 0.23274104 0.20998365 0.06634115 -2.5600176e-37 0.23552838 0.26481652
0.26677048 0.0029554062 -2.4910224e-37 -2.9928605e-37 0.3252337 -0.023879 0.028572077 0.20395648
0.11171698 0.24327469 -2.557141e-37 0.13969365 0.003747462 -2.3297988e-37 0.012837295 0.07997968
0.009363015 0.21355306 0.008054499 -0.0630295 0.040290218 0.11520731 -2.7238258e-37 -0.17779705
-3.2297434e-37 -2.594436e-37 0.0626613 -0.090196334 0.06692121 0.15468223 0.28264326 -0.022519886
0.16159257 0.1563178 -1.4631138e-37 0.17945094 -0.13328578 0.18220706 0.17652215 0.033534467
0.007934044 -0.02411979 0.3082516 0.008675189 0.07852741 -0.08822048 0.033612944 -0.07415585
0.26626047 -2.9959376e-37 0.23971705 0.04141436 0.089018136 -0.20733511 -3.1332278e-37 0.19313124
0.111034 0.2186296 6.2686067e-38 0.04282744 0.10840908 -0.02626214 -3.2227809e-37 0.19138527
-2.7480472e-37 0.22319232 0.106277354 -2.416127e-37 0.20543163 0.30411193 0.083274215 0.28157553
0.26305878 0.09515479 0.23067905 -0.13667352 -2.3843488e-37 -3.0477916e-37 -8.9683135e-38 0.07467968
00000000: 0c5b 113c d261 68bd 02ee 91bc 5b2d 373e
00000010: cacf edbc 4c2c 993d 82f0 d082 12c0 01bd
00000020: 42fa f93d 8b98 273d aef9 1d3e 85ef 4d3e
00000030: 38eb c83d 4c89 ba82 2749 ae82 6e37 af3d
00000040: f19f 7bbd 8aa9 04be 7763 473d 0f3c 853e
00000050: fa60 09bb 8fec ee3d 1e73 d83d 9e37 a43d
00000060: fd5b 04bd f143 cf82 933e d682 2025 9e82
00000070: 9687 c53c 7869 d082 af48 c482 9b01 943e
00000080: dcea 9482 5935 5c3e c3af 8f3e 92f7 aa82
00000090: 5723 c882 2daf e73d 3b4f 5a3d a073 c43e
000000a0: 05b8 2d3e eff8 6fbe ab53 6e3e f405 573e
000000b0: dedd 873d cc39 ae82 5a2e 713e 0896 873e
000000c0: 2496 883e 7daf 413b bb87 a982 fcae cb82
000000d0: 0885 a63e e59d c3bc fd0f ea3c f8d9 503e
000000e0: dfcb e43d 001d 793e ae07 ae82 da0b 0f3e
000000f0: fb97 753b d28e 9e82 8553 523c 63cc a33d
00000100: 5567 193c a7ad 5a3e 04f7 033c 9c15 81bd
00000110: 5b07 253d cff1 eb3d bd5f b982 6e10 36be
00000120: 11ce db82 7391 b082 9154 803d dbb8 b8bd
00000130: fd0d 893d 0565 1e3e 9eb6 903e a07b b8bc
00000140: 8678 253e c611 203e 1326 4782 fdc1 373e
00000150: 117c 08be 7d94 3a3e 39c2 343e 705b 093d
00000160: cbfd 013c de96 c5bc 27d3 9d3e 6122 0e3c
00000170: fbd2 a03d f0ac b4bd baad 093d 06df 97bd
00000180: 4b53 883e 98e4 cb82 6378 753e 1ba2 293d
00000190: 244f b63d a84f 54be 873c d582 32c4 453e
000001a0: cb65 e33d 70e0 5f3e d0a5 aa01 d36b 2f3d
000001b0: 9405 de3d b323 d7bc c354 db82 80fa 433e
000001c0: bc05 bb82 878c 643e f1a7 d93d df6e a482
000001d0: ab5c 523e 8fb4 9b3e ac8b aa3d ab2a 903e
000001e0: a4af 863e 84e0 c23d 2137 6c3e 25f4 0bbe
000001f0: 3745 a282 056c cf82 0624 f481 a9f1 983d

decoder.6.weight f4 [784, 128]
-0.01793543 -0.0024793276 -0.01403358 -0.01776226 -0.011410092 -0.0040190667 -2.867007e-37 -0.016359946
-0.020489268 -0.0027968604 -0.03478883 -0.016138341 -0.009441087 -2.0490652e-37 -2.8234687e-37 -0.006834638
-0.0063177254 -0.03042444 -0.016095791 -0.019340953 -0.011713789 -0.007317623 -0.0063558803 -0.011752714
-0.010522531 -2.9852857e-37 -2.3440344e-37 -2.289456e-37 -0.006738662 -3.1160082e-37 -1.2463062e-37 -0.024961771
-3.1279753e-37 -0.020471051 -0.010597862 -2.9165604e-37 -2.3316658e-37 -0.016424699 -0.020134773 -0.031060254
-0.012872752 -0.0155854635 -0.01951132 -0.013061006 -0.010720799 -3.1342693e-37 -0.026826981 -0.040361892
-0.017702978 -0.02213058 2.4705793e-37 -2.8653975e-37 -0.04012931 -0.03429557 -0.009427017 -0.022928677
-0.0113792755 -0.030393353 -2.5144382e-37 -0.022171753 -0.022155661 -2.7011416e-37 -0.015177932 -0.009331689
-0.012440113 -0.010776166 -0.004003376 -0.016564414 -0.0049834796 -0.016043726 -1.6678115e-37 -0.011930813
-2.9509687e-37 -2.8454345e-37 -0.00885041 -0.022216393 -0.03546003 -0.0065922015 -0.012084845 -0.008281891
-0.020891083 -0.016158065 2.9835472e-37 -0.013469214 -0.01404898 -0.023669012 -0.023314444 -0.013250749
-0.015138839 -0.0069075716 -0.030015403 -0.030385178 -0.017345967 -0.026857765 -0.009626305 -0.012078194
-0.04238818 -2.3303028e-37 -0.010261098 -0.011039165 -0.019440392 -0.006204035 -2.2994727e-37 -0.024525348
-0.016369617 -0.011176812 2.6860898e-37 -0.038484287 -0.01059064 -0.014226844 -2.6092316e-37 -0.011755645
-2.7911022e-37 -0.046505038 -0.012116235 -3.0312855e-37 -0.022533732 -0.011357313 -0.016380847 -0.027164182
-0.040752117 -0.018974982 -0.010504524 -0.0036908216 2.9591966e-37 -2.919112e-37 3.09473e-37 -0.021149952
-0.017935429 -0.0024793278 -0.014033577 -0.017762262 -0.011410091 -0.0040190658 -2.736315e-37 -0.016359944
-0.020489262 -0.0027968606 -0.03478884 -0.01613834 -0.009441088 -2.320195e-37 -1.0763125e-37 -0.0068346383
-0.006317727 -0.030424444 -0.016095787 -0.019340955 -0.011713787 -0.0073176236 -0.00635588 -0.011752715
-0.010522532 -3.0229192e-37 -1.7076549e-37 -2.9622808e-37 -0.006738661 -2.573067e-37 2.4891227e-37 -0.024961771
-2.3011314e-37 -0.020471051 -0.010597862 -2.2249781e-37 -1.9885362e-37 -0.016424697 -0.020134771 -0.031060258
-0.012872751 -0.0155854635 -0.01951132 -0.013061004 -0.010720799 2.9199903e-37 -0.02682698 -0.0403619
-0.017702982 -0.022130588 2.9542981e-37 3.0218322e-37 -0.04012931 -0.034295563 -0.009427015 -0.02292868
-0.011379276 -0.03039335 -2.4692424e-37 -0.02217175 -0.022155657 3.027954e-37 -0.015177932 -0.009331687
-0.012440112 -0.010776163 -0.0040033753 -0.016564414 -0.0049834787 -0.016043728 -1.6810133e-37 -0.011930812
-2.730002e-37 -1.6594793e-37 -0.008850409 -0.022216396 -0.03546003 -0.0065922006 -0.0120848445 -0.00828189
-0.020891082 -0.016158067 -3.1108873e-37 -0.013469213 -0.014048979 -0.023669012 -0.023314442 -0.0132507505
-0.015138839 -0.00690757 -0.0300154 -0.030385183 -0.017345965 -0.02685777 -0.009626303 -0.012078193
-0.042388182 -2.373523e-37 -0.010261097 -0.011039167 -0.019440394 -0.0062040356 -2.8958505e-37 -0.02452534
-0.016369617 -0.01117681 2.9767633e-37 -0.038484275 -0.010590639 -0.014226845 -2.9469024e-37 -0.011755648
-2.9557387e-37 -0.04650504 -0.012116235 3.1804161e-37 -0.02253373 -0.011357314 -0.016380845 -0.027164182
-0.04075212 -0.018974982 -0.010504525 -0.0036908214 3.0967129e-37 -3.0616524e-37 -2.7056717e-37 -0.021149945
00000000: 53ed 92bc 377c 22bb 1aed 65bc 2982 91bc
00000010: 65f1 3abc 60b2 83bb 4f1e c382 4b05 86bc
00000020: 1cd9 a7bc 884b 37bb bb7e 0ebd 8e34 84bc
00000030: caae 1abc c073 8b82 c327 c082 19f5 dfbb
00000040: ec04 cfbb ad3c f9bc 52db 83bc eb70 9ebc
00000050: 31eb 3fbc acc8 efbb fd44 d0bb 758e 40bc
00000060: b266 2cbc 032b cb82 d786 9f82 f3cf 9b82
00000070: fecf dcbb 8510 d482 6fa3 2982 a17c ccbc
00000080: 04e1 d482 e8b2 a7bc a8a2 2dbc a67d c682
00000090: 59af 9e82 178d 86bc aef1 a4bc 1372 febc
000000a0: 3ce8 52bc 2c5a 7fbc 34d6 9fbc d4fd 55bc
000000b0: 4aa6 2fbc ac4e d582 42c4 dbbc 8352 25bd
000000c0: d605 91bc 314b b5bc 9023 a802 4402 c382
000000d0: a25e 24bd 8379 0cbd c673 1abc ecd4 bbbc
000000e0: 2470 3abc 7bfb f8bc b11f ab82 89a1 b5bc
000000f0: ca7f b5bc 86d4 b782 dcac 78bc f1e3 18bc
00000100: 9ed1 4bbc 848e 30bc c02e 83bb 18b2 87bc
00000110: 754c a3bb 226e 83bc c002 6382 7579 43bc
00000120: 20d5 c882 76a6 c182 4f01 11bc 27ff b5bc
00000130: 893e 11bd 6503 d8bb 84ff 45bc c5b0 07bc
00000140: c723 abbc eb5d 84bc b90c cb02 faad 5cbc
00000150: b12d 66bc 84e5 c1bc effd bebc ab19 59bc
00000160: e508 78bc e958 e2bb dde2 f5bc 56ea f8bc
00000170: 2119 8ebc d104 dcbc a6b7 1dbc 9ee3 45bc
00000180: 3a9f 2dbd 9a97 9e82 2a1e 28bc 9ddd 34bc
00000190: 7541 9fbc 384b cbbb 777e 9c82 62e9 c8bc
000001a0: 9319 86bc f31e 37bc 49ce b602 b3a1 1dbd
000001b0: 5d84 2dbc b517 69bc 3a93 b182 c09a 40bc
000001c0: dcf3 bd82 117c 3ebd 2c83 46bc 714c ce82
000001d0: a998 b8bc 0614 3abc 2031 86bc 6b87 debc
000001e0: b1eb 26bd 6c71 9bbc 2b1b 2cbc b6e1 71bb
000001f0: 7a64 c902 1baa c682 cd9d d202 aa42 adbc
00000200: 52ed 92bc 387c 22bb 17ed 65bc 2a82 91bc
00000210: 64f1 3abc 5eb2 83bb 5539 ba82 4a05 86bc
00000220: 19d9 a7bc 894b 37bb be7e 0ebd 8d34 84bc
00000230: cbae 1abc 80e7 9d82 0480 1282 1af5 dfbb
00000240: ef04 cfbb af3c f9bc 50db 83bc ec70 9ebc
00000250: 2feb 3fbc adc8 efbb fc44 d0bb 768e 40bc
00000260: b366 2cbc aeba cd82 176f 6882 369a c982
00000270: fccf dcbb 261d af82 a266 a902 a17c ccbc
00000280: 5d9b 9c82 e8b2 a7bc a8a2 2dbc 966c 9782
00000290: 3055 8782 168d 86bc adf1 a4bc 1572 febc
000002a0: 3be8 52bc 2c5a 7fbc 34d6 9fbc d2fd 55bc
000002b0: 4aa6 2fbc 68b9 c602 41c4 dbbc 8552 25bd
000002c0: d805 91bc 354b b5bc 220f c902 bea7 cd02
000002d0: a25e 24bd 8179 0cbd c473 1abc edd4 bbbc
000002e0: 2570 3abc 7afb f8bc 450c a882 88a1 b5bc
000002f0: c87f b5bc 6612 ce02 dcac 78bc efe3 18bc
00000300: 9dd1 4bbc 818e 30bc bf2e 83bb 18b2 87bc
00000310: 734c a3bb 236e 83bc c4ce 6482 7479 43bc
00000320: 58cb b982 6ae0 6182 4e01 11bc 29ff b5bc
00000330: 893e 11bd 6303 d8bb 83ff 45bc c4b0 07bc
00000340: c623 abbc ec5d 84bc 4db7 d382 f9ad 5cbc
00000350: b02d 66bc 84e5 c1bc eefd bebc ad19 59bc
00000360: e508 78bc e658 e2bb dbe2 f5bc 59ea f8bc
00000370: 2019 8ebc d304 dcbc a4b7 1dbc 9de3 45bc
00000380: 3b9f 2dbd 9a88 a182 291e 28bc 9fdd 34bc
00000390: 7641 9fbc 394b cbbb d514 c582 5ee9 c8bc
000003a0: 9319 86bc f01e 37bc 8896 ca02 b0a1 1dbd
000003b0: 5c84 2dbc b717 69bc 488e c882 c39a 40bc
000003c0: 3b28 c982 127c 3ebd 2c83 46bc aa72 d802
000003d0: a898 b8bc 0714 3abc 1f31 86bc 6b87 debc
000003e0: b2eb 26bd 6c71 9bbc 2c1b 2cbc b5e1 71bb
000003f0: 59c0 d202 825d d082 7323 b882 a642 adbc
